…
98.71945381164551% accuracy
98.92578125% validation accuracy
=========


Model: "functional_1"
__________________________________________________________________________________________________
Layer (type)                    Output Shape         Param #     Connected to                     
==================================================================================================
input_1 (InputLayer)            [(None, 63, 63, 1)]  0                                            
__________________________________________________________________________________________________
conv2d (Conv2D)                 (None, 63, 63, 64)   3200        input_1[0][0]                    
__________________________________________________________________________________________________
conv2d_1 (Conv2D)               (None, 63, 63, 64)   200768      conv2d[0][0]                     
__________________________________________________________________________________________________
conv2d_2 (Conv2D)               (None, 63, 63, 64)   200768      conv2d_1[0][0]                   
__________________________________________________________________________________________________
add (Add)                       (None, 63, 63, 64)   0           input_1[0][0]                    
                                                                 conv2d_2[0][0]                   
__________________________________________________________________________________________________
re_lu (ReLU)                    (None, 63, 63, 64)   0           add[0][0]                        
__________________________________________________________________________________________________
conv2d_3 (Conv2D)               (None, 63, 63, 32)   51232       re_lu[0][0]                      
__________________________________________________________________________________________________
conv2d_4 (Conv2D)               (None, 63, 63, 32)   25632       conv2d_3[0][0]                   
__________________________________________________________________________________________________
conv2d_6 (Conv2D)               (None, 63, 63, 32)   2080        re_lu[0][0]                      
__________________________________________________________________________________________________
conv2d_5 (Conv2D)               (None, 63, 63, 32)   25632       conv2d_4[0][0]                   
__________________________________________________________________________________________________
add_1 (Add)                     (None, 63, 63, 32)   0           conv2d_6[0][0]                   
                                                                 conv2d_5[0][0]                   
__________________________________________________________________________________________________
re_lu_1 (ReLU)                  (None, 63, 63, 32)   0           add_1[0][0]                      
__________________________________________________________________________________________________
conv2d_7 (Conv2D)               (None, 63, 63, 16)   4624        re_lu_1[0][0]                    
__________________________________________________________________________________________________
conv2d_9 (Conv2D)               (None, 63, 63, 16)   528         re_lu_1[0][0]                    
__________________________________________________________________________________________________
conv2d_8 (Conv2D)               (None, 63, 63, 16)   2320        conv2d_7[0][0]                   
__________________________________________________________________________________________________
add_2 (Add)                     (None, 63, 63, 16)   0           conv2d_9[0][0]                   
                                                                 conv2d_8[0][0]                   
__________________________________________________________________________________________________
re_lu_2 (ReLU)                  (None, 63, 63, 16)   0           add_2[0][0]                      
__________________________________________________________________________________________________
flatten (Flatten)               (None, 63504)        0           re_lu_2[0][0]                    
__________________________________________________________________________________________________
dense (Dense)                   (None, 128)          8128640     flatten[0][0]                    
__________________________________________________________________________________________________
dense_1 (Dense)                 (None, 96)           12384       dense[0][0]                      
__________________________________________________________________________________________________
dense_2 (Dense)                 (None, 16)           1552        dense_1[0][0]                    
__________________________________________________________________________________________________
dense_3 (Dense)                 (None, 2)            34          dense_2[0][0]                    
==================================================================================================
Total params: 8,659,394
Trainable params: 8,659,394
Non-trainable params: 0
__________________________________________________________________________________________________
