C:\Users\sravan953\Documents\CU\Projects\imr-framework\ArtifactID\Data\sim_splits_subjectsorted
{'noartifact': 0, 'gibbs': 1}
534.1700091362 seconds
32 batch size
100 epochs
99.55357313156128% accuracy
90.625% validation accuracy
=========


Model: "sequential"
_________________________________________________________________
Layer (type)                 Output Shape              Param #   
=================================================================
conv2d (Conv2D)              (None, 254, 254, 256)     2560      
_________________________________________________________________
max_pooling2d (MaxPooling2D) (None, 63, 63, 256)       0         
_________________________________________________________________
conv2d_1 (Conv2D)            (None, 61, 61, 288)       663840    
_________________________________________________________________
max_pooling2d_1 (MaxPooling2 (None, 15, 15, 288)       0         
_________________________________________________________________
conv2d_2 (Conv2D)            (None, 13, 13, 288)       746784    
_________________________________________________________________
flatten (Flatten)            (None, 48672)             0         
_________________________________________________________________
dense (Dense)                (None, 128)               6230144   
_________________________________________________________________
dense_1 (Dense)              (None, 96)                12384     
_________________________________________________________________
dense_2 (Dense)              (None, 16)                1552      
_________________________________________________________________
dense_3 (Dense)              (None, 2)                 34        
=================================================================
Total params: 7,657,298
Trainable params: 7,657,298
Non-trainable params: 0
_________________________________________________________________
